…
        "dropout": 0.1,
        "adaptive_embedding_dim": 80,
        "node_dim": 64,
        "use_temporal_heterogeneity": false,
        "use_spatial_heterogeneity": false,
        "use_temporal_cross": true,
        "use_spatial_cross": true,
        "use_mixed_proj": true
    }
}
===============================================================================================
Layer (type:depth-idx)                        Output Shape              Param #
===============================================================================================
STHDformer                                    [16, 12, 170, 1]          139,944
├─Linear: 1-1                                 [16, 12, 170, 24]         96
├─Embedding: 1-2                              [16, 12, 170, 24]         6,912
├─Embedding: 1-3                              [16, 12, 170, 24]         168
├─ModuleList: 1-9                             --                        (recursive)
│    └─SelfAttentionLayer: 2-1                [16, 12, 170, 152]        23,256
│    │    └─AttentionLayer: 3-1               [16, 170, 12, 152]        93,024
│    │    └─Dropout: 3-2                      [16, 170, 12, 152]        --
│    │    └─LayerNorm: 3-3                    [16, 170, 12, 152]        304
│    │    └─Sequential: 3-4                   [16, 170, 12, 152]        78,232
│    │    └─Dropout: 3-5                      [16, 170, 12, 152]        --
│    │    └─LayerNorm: 3-6                    [16, 170, 12, 152]        304
├─ModuleList: 1-5                             --                        --
│    └─TemporalTCNLayer: 2-2                  [16, 12, 170, 152]        --
│    │    └─Conv1d: 3-7                       [2720, 152, 12]           69,464
│    │    └─ReLU: 3-8                         [2720, 152, 12]           --
│    │    └─Dropout: 3-9                      [2720, 152, 12]           --
│    │    └─LayerNorm: 3-10                   [2720, 12, 152]           304
├─ModuleList: 1-11                            --                        (recursive)
│    └─Cross_SelfAttentionLayer: 2-3          [16, 12, 170, 152]        --
│    │    └─Cross_AttentionLayer: 3-11        [16, 170, 12, 152]        93,024
│    │    └─Dropout: 3-12                     [16, 170, 12, 152]        --
│    │    └─LayerNorm: 3-13                   [16, 170, 12, 152]        304
│    │    └─Sequential: 3-14                  [16, 170, 12, 152]        78,232
│    │    └─Dropout: 3-15                     [16, 170, 12, 152]        --
│    │    └─LayerNorm: 3-16                   [16, 170, 12, 152]        304
├─Dual_graph: 1-7                             [16, 12, 170, 128]        --
│    └─Graph_projection: 2-4                  [1, 170, 64]              --
│    │    └─Linear: 3-17                      [1, 170, 64]              10,944
│    │    └─ReLU: 3-18                        [1, 170, 64]              --
│    │    └─Dropout: 3-19                     [1, 170, 64]              --
│    │    └─Linear: 3-20                      [1, 170, 64]              4,160
│    └─Graph_projection: 2-5                  [1, 170, 64]              --
│    │    └─Linear: 3-21                      [1, 170, 64]              10,944
│    │    └─ReLU: 3-22                        [1, 170, 64]              --
│    │    └─Dropout: 3-23                     [1, 170, 64]              --
│    │    └─Linear: 3-24                      [1, 170, 64]              4,160
├─Fusion_Model: 1-8                           [16, 12, 170, 152]        --
│    └─Sequential: 2-6                        [16, 12, 170, 80]         --
│    │    └─MLP: 3-25                         [16, 12, 170, 208]        86,944
│    │    └─MLP: 3-26                         [16, 12, 170, 208]        86,944
│    │    └─Linear: 3-27                      [16, 12, 170, 80]         16,720
├─ModuleList: 1-9                             --                        (recursive)
│    └─SelfAttentionLayer: 2-7                [16, 12, 170, 152]        (recursive)
│    │    └─Sequential: 3-28                  [16, 12, 170, 152]        23,256
│    │    └─AttentionLayer: 3-29              [16, 12, 170, 152]        (recursive)
│    │    └─Dropout: 3-30                     [16, 12, 170, 152]        --
│    │    └─LayerNorm: 3-31                   [16, 12, 170, 152]        (recursive)
│    │    └─Sequential: 3-32                  [16, 12, 170, 152]        (recursive)
│    │    └─Dropout: 3-33                     [16, 12, 170, 152]        --
│    │    └─LayerNorm: 3-34                   [16, 12, 170, 152]        (recursive)
├─ModuleList: 1-10                            --                        --
│    └─SpatialGATLayer: 2-8                   [16, 12, 170, 152]        76
│    │    └─Linear: 3-35                      [192, 170, 152]           23,256
│    │    └─LeakyReLU: 3-36                   [192, 4, 170, 170]        --
│    │    └─Dropout: 3-37                     [192, 4, 170, 170]        --
├─ModuleList: 1-11                            --                        (recursive)
│    └─Cross_SelfAttentionLayer: 2-9          [16, 12, 170, 152]        (recursive)
│    │    └─Cross_AttentionLayer: 3-38        [16, 12, 170, 152]        (recursive)
│    │    └─Dropout: 3-39                     [16, 12, 170, 152]        --
│    │    └─LayerNorm: 3-40                   [16, 12, 170, 152]        (recursive)
│    │    └─Sequential: 3-41                  [16, 12, 170, 152]        (recursive)
│    │    └─Dropout: 3-42                     [16, 12, 170, 152]        --
│    │    └─LayerNorm: 3-43                   [16, 12, 170, 152]        (recursive)
├─Linear: 1-12                                [16, 170, 12]             21,900
===============================================================================================
Total params: 873,176
Trainable params: 873,176
Non-trainable params: 0
Total mult-adds (G): 2.29
===============================================================================================
Input size (MB): 0.39
Forward/backward pass size (MB): 1795.03
Params size (MB): 2.84
Estimated Total Size (MB): 1798.26
…
